saved_models/actor_episode_1000.pth (torch, 289462 bytes, 6 tensors)

hidden_1.weight f4 [256, 147]
000000 bc 32 29 3d 20 ba 4b bd c7 80 47 3d 89 24 85 3d
       0.04130815 -0.04973805 0.048706796 0.06501109
000010 95 f1 93 3d 4a 2a 02 3d 18 ab cf 3c ee a5 90 ba
       0.072238125 0.03177861 0.025350139 -0.0011035779
000020 01 d7 2c 3d 43 69 2b bd 3e b6 43 3d 03 68 a7 bd
       0.04219723 -0.041848432 0.04778122 -0.081741355
000030 a4 76 f2 bc 0d 58 aa bc 1b aa 42 bd 7b 41 9d b9
       -0.029597588 -0.020793939 -0.047525506 -0.0002999416
000040 b2 a2 83 3d d4 fa 29 3d ac b9 61 3c cf a5 b0 3c
       0.06427516 0.041498974 0.013777178 0.021563439
000050 9b 0d 8d 3d 2c d0 49 3d bd ee b9 3c 24 2c 4c 3c
       0.06887361 0.049270794 0.022696847 0.012461696
000060 96 35 1e bd 05 51 e2 3c fd fd a4 bd 62 42 70 3d
       -0.038625322 0.027626524 -0.08056257 0.058657058
000070 a3 d6 92 bd 5f 83 5c bc 84 74 4c 3c 02 06 53 3c
       -0.07169845 -0.013459056 0.012478951 0.01287985
000080 b7 cd 7a bd 46 23 78 bd 71 49 f8 3c 51 c8 88 3d
       -0.06123134 -0.060580514 0.030308457 0.06678832
000090 bd d3 89 bd f4 27 9e 3d ed 6f f7 bc 2a 32 99 3d
       -0.06729839 0.07722464 -0.030204738 0.07480271
0000a0 d4 14 77 bd fc 3b 42 3d 6b 22 94 bd 72 d9 a4 3d
       -0.060322598 0.047420487 -0.07233127 0.08049287
0000b0 60 4c 70 3d 42 2b 69 bd ac 6d 46 bd 83 bd 28 bc
       0.058666587 -0.05692602 -0.048444435 -0.010299089
0000c0 68 b1 e9 3c f5 c7 44 bd ee 13 80 3d e4 87 a4 bd
       0.028526977 -0.048042256 0.06253801 -0.080337316
0000d0 35 f9 60 3c 9a 45 c1 bb 07 70 6a bd 8e 7f 88 bd
       0.013731291 -0.0058981897 -0.057235744 -0.06664954
0000e0 a2 44 67 bd d8 c3 94 3d 9a 15 1d 3b 53 a4 50 bc
       -0.056461938 0.07263917 0.0023969174 -0.01273449
0000f0 d5 48 f7 bc 24 49 a0 bd 51 c5 4a bd b6 e4 54 3c
       -0.030186096 -0.078264505 -0.04950458 0.012993982
000100 e2 67 ce 3c 4f 5a 59 bd 25 d5 22 3c 3c 50 29 bd
       0.02519602 -0.05306464 0.009938513 -0.041336283
000110 f4 fb 6e 3c 66 ad bb 3c 1d a8 87 3c d9 4c 0c 3d
       0.0145864375 0.022909831 0.016559655 0.034252975
000120 5a a0 7a bd 6e 24 4c 3c f7 fa f4 3c 62 b1 93 3d
       -0.06118808 0.012459857 0.029904826 0.072115675
000130 57 6e 59 3d a0 0e 9e bc 7f 72 69 3d 3c b0 44 bd
       0.053083744 -0.019294083 0.056993958 -0.048019633
000140 5a 10 42 bd 48 0f 7d 3d 7a b6 91 3c 68 1d 01 3d
       -0.047378875 0.06178215 0.017787207 0.031522185
000150 5e 20 9e bd cc a0 8b 3d 1a fd a3 3d 3a e0 06 bd
       -0.07721017 0.06817779 0.0800726 -0.032928683
000160 f4 76 e9 bc c6 a9 91 bd 34 07 34 3d 38 ee 93 bd
       -0.028499104 -0.0711246 0.043952182 -0.07223171
000170 fc f0 98 3d 05 63 95 bd 26 93 1e 3d 8c 9f 26 3d
       0.07467839 -0.07294277 0.03871455 0.0406795
000180 f4 70 4b 3b 7b 59 23 3c ed f9 1a 3d 67 7d 55 bd
       0.0031042667 0.009970064 0.037836004 -0.052121546
000190 11 c0 d2 bb 17 32 24 3d ec a7 62 3d 8e 16 34 3d
       -0.0064315875 0.040086832 0.055335924 0.043966822
0001a0 a4 65 59 3c 8f 69 11 bd fb d1 29 bb 24 d6 9c 3d
       0.013268862 -0.03550106 -0.0025912512 0.076580316
0001b0 c6 a8 19 3d 19 f0 87 bc 87 5b a8 bb 38 98 97 3d
       0.03751447 -0.01659398 -0.005137864 0.0740208
0001c0 0e 79 87 bd 1a 39 62 bd 1e e4 82 bd 37 cc 1e 3d
       -0.06614886 -0.055230238 -0.06391166 0.038768973
0001d0 c9 17 38 3b ac 9e b3 bc 30 67 88 3d 06 8d a4 bd
       0.002809035 -0.021926247 0.066603065 -0.080347106
0001e0 91 1a bb 3c 07 eb d9 3c a4 7d 9e 3c a5 9b 73 3d
       0.022839816 0.026601328 0.01934702 0.059474606
0001f0 ea 1a e5 bc 84 72 a2 3d d3 1f b8 bc 21 a3 60 bd
       -0.027966935 0.07931998 -0.022476112 -0.05484307
000200 64 61 9d 3d 9d 54 19 bd 0e 7f 1b 3d 49 ef 1d bd
       0.076845914 -0.03743421 0.037962966 -0.03855828
000210 25 c6 32 bd d5 86 64 bd 82 26 06 bd c0 8e f7 bb
       -0.043645997 -0.05579265 -0.032751568 -0.007554859
000220 08 e8 9a bd 73 16 14 3d a9 99 a4 bd 3b e9 7a bc
       -0.07563788 0.03615422 -0.08037121 -0.015314396
000230 87 b6 81 bc 8d 68 2e 3d cc d8 87 3d ea f3 8e 3d
       -0.015834106 0.042580176 0.066331476 0.06980117
000240 8e fd a4 3d 92 80 0f bd e1 17 6e bd 1d 21 66 3c
       0.08056174 -0.035034724 -0.05812824 0.014045981
000250 4c 56 71 3d 55 9f b3 bc 6f b0 a3 3c cb 18 8f bb
       0.05892019 -0.021926561 0.019981591 -0.004366969
000260 d7 5d 6d 3d b8 5a 26 bd 55 ee 7d 3d 5c 77 5e bd
       0.05795082 -0.04061386 0.06199487 -0.05431305
000270 3c 4b a3 bc c3 7e 9d 3b c6 13 91 bd 12 26 6f 3d
       -0.019933335 0.004806371 -0.070838496 0.058385916
000280 f2 6f 95 3d 25 02 d4 3c 70 86 47 3d 5c 3a 24 3c
       0.072967425 0.025879929 0.048712194 0.01002368
000290 ef 88 2b bb cc 8c e2 3c ac d6 7d bc 75 d2 26 3d
       -0.0026174148 0.027655028 -0.015493076 0.04072805
0002a0 84 0d 83 3d 2c 53 94 3b fe ff 80 bd 22 b3 2c 3d
       0.06399062 0.0045265164 -0.06298827 0.04216302
0002b0 6e 6f a6 3d 29 ed 1a bd a6 0a 57 bd 75 40 5d bd
       0.08126722 -0.03782383 -0.05250039 -0.05401655
0002c0 ae c2 09 3d 1e cf fe 3c 9c fa 63 3c 8a f1 25 bd
       0.033632927 0.03110462 0.01391473 -0.040513553
0002d0 b4 80 1b bd 0c e1 aa 3c 2a af 85 3d a8 08 6f bc
       -0.037964538 0.020859264 0.065275505 -0.014589466
0002e0 06 8b d0 bc 78 ef e4 bc 53 3c a0 bb 1e cf 91 bc
       -0.025456917 -0.027946219 -0.0048900037 -0.017798956
0002f0 49 75 45 3c 91 36 96 bd eb a5 64 3d a2 24 a9 3c
       0.012051889 -0.073346265 0.055822294 0.02064735
000300 48 0d c5 3c ac 47 8c bd 7b 10 85 bd 85 73 6a 3d
       0.024054185 -0.06849608 -0.06497284 0.057239074
000310 b3 21 0e bd 49 c7 e9 3c 84 82 80 bd f3 24 5a bc
       -0.034700107 0.02853741 -0.06274894 -0.013314473
000320 9b 96 84 3d c9 8d aa bc 10 61 a5 3d e2 f1 91 bd
       0.06474038 -0.020819562 0.08075154 -0.071262136
000330 ba a2 66 bd 22 af 9e 3d d4 4c 03 bd c1 06 1f 3d
       -0.056307532 0.07748248 -0.03205569 0.0388248
000340 00 7c a6 3a 1f e7 46 3d d2 4b 82 3d d4 64 57 bc
       0.001270175 0.048560258 0.06362118 -0.013146598
000350 e2 5e 6a bd ac 37 ce 3c f3 ed 60 3c 26 cf 11 3d
       -0.057219394 0.02517303 0.0137286065 0.035597943
000360 f3 fe 6c bd 8b 22 d0 bc 76 e9 9e 3c ec 48 82 3d
       -0.057860326 -0.025407096 0.019398432 0.06361565
000370 ed eb 08 bd 7a f8 5d 3d 1f cd 7f bd 92 6a 98 bc
       -0.03342812 0.054192044 -0.062451478 -0.018605504
000380 d4 e6 6d 3d 73 6b f4 bc 3c 79 b2 bc bf 1a e8 3c
       0.058081463 -0.029836392 -0.021786325 0.028333066
000390 d9 00 68 3d 9b 63 a0 3d 21 8f 4a 3c b6 b1 89 ba
       0.056641433 0.07831498 0.012363226 -0.0010505232
0003a0 21 bc cc bc cc a6 87 ba c2 69 2b 3c dd 54 de 3c
       -0.02499205 -0.0010349392 0.010462226 0.027140075
0003b0 9a 2e 23 bd 0b 80 46 3d 28 bb d5 3c d1 46 a6 bd
       -0.039839365 0.048461955 0.02609022 -0.08118976
0003c0 3a e8 8f 3a bc 28 51 bd ee 05 84 3d c6 8e 89 bd
       0.0010979243 -0.051064238 0.064464435 -0.06716685
0003d0 a0 2b c3 3c 6f aa 74 bd db 26 8a 3d d9 4d 22 3d
       0.023824513 -0.05973285 0.06745692 0.039625023
0003e0 c9 58 f2 bc 40 d6 04 3d b2 4a a7 3d c4 4e 5a bc
       -0.029583352 0.032430887 0.08168544 -0.013324443
0003f0 65 c1 90 bd c7 a0 53 3d da 68 19 3d 65 b6 7b bd
       -0.07068137 0.051667 0.03745351 -0.06145324

hidden_1.bias f4 [256]
000000 17 e5 8b 3d 1a 8a 51 3d 6c 82 7a 3c 33 99 0e bb
       0.06830805 0.051157095 0.015289884 -0.0021758794
000010 3c f5 01 bc f3 a8 65 3d cf 8f a0 3d bc 62 89 3c
       -0.007932004 0.056069326 0.07839929 0.016770713
000020 54 a1 83 bd 14 75 9f bc 3c 08 c4 3c 08 d1 ac bb
       -0.06427255 -0.019465007 0.023929708 -0.005273942
000030 45 b5 fa bc d4 96 a3 bd 2f 48 bd bb 87 0b 71 bb
       -0.030604014 -0.079877526 -0.005776427 -0.0036780552
000040 fd 77 20 3d 8b 09 95 3d 4d 23 16 bd 96 8b b2 bb
       0.03917693 0.07277211 -0.03665476 -0.005448769
000050 19 86 c1 3b c5 aa e0 3c 4d ae 74 bc 17 79 00 bd
       0.0059058783 0.02742518 -0.014934135 -0.03136548
000060 fa 11 85 ba af 12 bf bb e1 cc 7d bd ab 74 8d bc
       -0.0010152452 -0.0058310847 -0.061962966 -0.017267546
000070 9a 36 96 3d 53 52 e7 3b 5d 54 4a 3c 19 80 c1 bc
       0.07334633 0.0070593744 0.012349215 -0.023620652
000080 67 e0 83 3d 21 45 58 3c 3a 47 40 bd cc 0f 10 bd
       0.06439286 0.013200075 -0.046942927 -0.035171315
000090 78 bd 9a 3c ea 42 4f 3d b4 d5 3c 3b c0 01 1b bd
       0.018889174 0.050600924 0.00288139 -0.037843466
0000a0 aa f7 9d bd ea f0 11 bc 88 58 3e bc f7 e2 59 bb
       -0.07713254 -0.008907536 -0.011617787 -0.0033246854
0000b0 07 17 a7 3d 02 95 70 3c 0c 21 6e bd 78 98 73 bc
       0.08158689 0.014683964 -0.058136985 -0.014867894
0000c0 de 52 5a 3d ff 15 88 bc 8a eb 90 bc e1 f0 6d 3d
       0.053301685 -0.016612051 -0.017690439 0.05809105
0000d0 ba 3f 1d bd 7d 17 3c 3d 80 72 ab 39 ce 08 a5 bc
       -0.038390853 0.045920838 0.0003270097 -0.0201458
0000e0 de 4a 7c bd e4 4c 9b 3d 7b 71 bb bc 47 e2 ec 3c
       -0.061594836 0.07583025 -0.02288126 0.028916491
0000f0 96 f7 7f 3d 0c 70 a5 bc 4b 76 1f 3c 49 bc 84 bd
       0.062491976 -0.02019503 0.009732793 -0.06481225
000100 0f 92 a4 bd 95 6c 95 bd 81 97 55 3d df 4f 89 bd
       -0.08035671 -0.07296101 0.05214644 -0.06704687
000110 0a da 28 3d 25 00 35 3d 91 f6 95 bd 57 f0 79 3d
       0.041223563 0.04418959 -0.073224194 0.06102022
000120 52 b9 a3 bc ac 6c 9c 3d b8 08 85 bc 05 58 bd 3a
       -0.019985829 0.07637915 -0.016239509 0.0014445788
000130 18 4e 34 bd 5b 2b 9d bc 06 9c 49 3c 58 f2 6e bc
       -0.04401979 -0.019185713 0.012305265 -0.014584146
000140 dd c7 60 3d 43 ee fa 3c 2e b5 3d bc 81 f7 df bc
       0.054878104 0.03063119 -0.011578841 -0.027339699
000150 6f 76 17 bd 95 05 53 3d 02 18 24 bb c2 bb 40 3d
       -0.03697818 0.051518995 -0.0025038724 0.04705406
000160 5c 68 b6 bc b0 2a 36 bc a0 d0 c3 3c df c8 7b 3d
       -0.02226656 -0.011118576 0.023903191 0.061470862
000170 fe 88 37 bd 72 9a 14 3d 1a b5 1f 3c 8e d7 0f 3d
       -0.04480838 0.036280103 0.009747768 0.03511768
000180 f4 85 9b 3d df 86 5a 3d 97 2e c1 bc 5a 33 c1 3c
       0.07593909 0.05335128 -0.023581786 0.023584057
000190 ac 2e 97 bd 93 9a 00 bd 58 6c 1b 3b a1 b0 a4 3d
       -0.07381949 -0.031397413 0.00237157 0.08041502
0001a0 14 ff 30 3d 62 d1 80 bd 6c be 81 bd ec b7 1d 3c
       0.04321201 -0.062899366 -0.06335148 0.00962637
0001b0 1b 01 1d 3d 58 9d c0 3a 15 67 59 3d 32 a0 13 3d
       0.038331132 0.001469533 0.053076822 0.036041446
0001c0 63 f2 30 3d 5f 8e 92 bd 2a 5d 6e bd cf 9a b7 3c
       0.043199908 -0.071560614 -0.058194317 0.022412686
0001d0 bd e7 9d bd 23 8d ec 3c 9b 9b 84 bd 49 49 c5 bc
       -0.07710216 0.028875893 -0.06474992 -0.024082797
0001e0 80 51 a3 bd ea 4f 55 3d 5f 44 bd 3c 3f 4c 91 3c
       -0.07974529 0.052078165 0.023103891 0.017736552
0001f0 e4 2e 39 bd 8d 49 71 3d 6d 47 a2 3d ed 69 93 3c
       -0.045210734 0.058908034 0.0792378 0.017994845
000200 2d 79 f8 bc 3e d2 72 bd 42 a1 8f 3d ff 2e 65 3d
       -0.030331219 -0.059282534 0.07013179 0.055953022
000210 02 5d 1a 3d 93 76 83 bb 9c 82 8c 3d 87 9e 84 bd
       0.037686355 -0.004011938 0.06860849 -0.06475549
000220 f4 36 a6 bd 15 fa 0e bd 16 b1 3c bb 6d e9 bb bc
       -0.0811595 -0.034906466 -0.0028792075 -0.022938455
000230 b6 fb 81 3d a0 e2 cc bc 65 57 5d 3d 77 65 c0 bc
       0.06346838 -0.025010407 0.054038424 -0.023485882
000240 ab ee 78 3d 52 9d a6 bb 3b da a3 bd 57 30 a6 bd
       0.060774487 -0.005084672 -0.080006085 -0.08114689
000250 36 cd 58 bd cc 55 09 3d 9f 8a ec 3c 09 34 88 bd
       -0.05293008 0.033529088 0.028874693 -0.0665055
000260 fc 6d c8 3c 5c 9d 0d 3d 42 48 24 3c 99 eb 28 3d
       0.024466507 0.034573898 0.010026993 0.04124031
000270 1f ed 85 bb 04 21 df 3c d8 71 f4 bb c2 06 2a bd
       -0.004087105 0.027237423 -0.0074598603 -0.04151035
000280 37 83 7a bd 77 da 8c 3d 6f 9f bc bb 62 3b ce bb
       -0.061160292 0.06877606 -0.0057563107 -0.0062937
000290 62 40 ea bc ef 2b d8 bc 5c ce e6 39 64 e6 a7 3c
       -0.028595153 -0.026388137 0.00044022768 0.020495601
0002a0 39 20 93 3d 04 25 11 bd f5 9e 91 3d b1 4a f6 3b
       0.0718388 -0.03543569 0.07110397 0.007516228
0002b0 0c 04 49 bd bd 12 6c 3d c8 ef 85 bd fe b0 8e bd
       -0.049076125 0.057635058 -0.06539875 -0.06967352
0002c0 3e fc 74 3d c5 81 32 3a e1 5c 70 3d 36 fe de bc
       0.05981087 0.00068094983 0.058682326 -0.027220827
0002d0 56 e5 a8 3d a6 d8 31 bd 7e c9 85 bc 73 42 64 ba
       0.08246867 -0.043419503 -0.01633143 -0.00087074115
0002e0 b9 82 c0 3c 92 20 a9 3b aa 5b 94 3d ec 64 ed bc
       0.023499833 0.0051613534 0.07244046 -0.028978787
0002f0 dd aa 06 3c 95 73 57 bd 94 41 2b 3d c3 6e a6 3c
       0.008219448 -0.052600462 0.041810587 0.020316487
000300 3f b9 d4 bc eb e9 8f bc 41 3f 2d 3d 7d 72 97 bd
       -0.025967238 -0.017567595 0.04229665 -0.07394884
000310 d3 57 14 bd 64 15 38 3d f2 25 a4 bb 68 0f 84 bc
       -0.03621657 0.044942275 -0.0050094062 -0.016120628
000320 72 bf b2 3c 03 92 17 bd e4 17 26 bd 0b 10 d1 bc
       0.021819804 -0.037004482 -0.040550128 -0.025520345
000330 53 0b 8a bd ab fc 05 bd 10 99 95 3d 88 cd a4 3d
       -0.06740441 -0.032711666 0.07304585 0.080470145
000340 75 28 ce 3c 29 4d c2 bc 8f 53 8c bd 77 ca 8d bc
       0.025165776 -0.023718433 -0.06851875 -0.017308457
000350 aa 5c a4 bd 5f 19 15 3c 00 a7 74 bd f6 a3 94 3d
       -0.08025487 0.009100287 -0.059729576 0.072578356
000360 31 9d a0 bd 08 0d f7 bc 9d 38 13 3d 62 d5 3b bd
       -0.07842482 -0.030157581 0.035942663 -0.045857795
000370 da 6d 29 bd b1 3f 57 3d 66 7f 09 3b 90 9e 5d 3c
       -0.04136453 0.052550975 0.0020980476 0.013526574
000380 91 3d 88 bd ea 77 2c bc 46 e6 36 bd dd 8f 2f bd
       -0.06652368 -0.010526637 -0.0446532 -0.042861808
000390 e6 b2 cb bc bf 07 9f 3d 77 f0 86 3d 5f 52 ba 3c
       -0.024865579 0.07765149 0.06588834 0.022744356
0003a0 ef e8 7e bd cc 25 90 3c 01 1e 6b bd 3b 20 a8 bd
       -0.06223386 0.017596148 -0.05740166 -0.082092725
0003b0 3b 20 4f bd 38 fe 70 3d 87 2c 67 3d 94 bb 61 3d
       -0.050567847 0.058836192 0.05643895 0.05511053
0003c0 f5 a8 60 bd 83 b9 b1 bb e1 78 5c bd db dc 9c 3c
       -0.05484863 -0.005423726 -0.053826217 0.01914828
0003d0 c0 04 0c 3d bf a6 89 3d bc eb 57 3d 38 13 92 bd
       0.034184217 0.067212574 0.05271505 -0.07132572
0003e0 42 f0 a8 bc 48 83 12 bd db 6c 3a 3d a1 a6 55 3d
       -0.020622376 -0.03576973 0.04551397 0.052160863
0003f0 49 4b 84 3d 4c ce 05 3d 30 f0 06 bd 45 4d a1 bc
       0.06459672 0.032667443 -0.032943904 -0.019690165

hidden_2.weight f4 [128, 256]
000000 26 10 7f 3d c8 60 b8 3c 70 40 94 bc 1e 74 59 3d
       0.06227126 0.022507086 -0.018097132 0.053089254
000010 4a b7 0f 3d d0 90 bf 3c 92 34 4b bd a4 d4 23 3d
       0.035086907 0.023384482 -0.04961068 0.03999771
000020 be 8e 48 3d 9c b1 d0 3c 5c 72 96 bc 90 f9 a3 bb
       0.048964255 0.025475316 -0.018365078 -0.0050041154
000030 68 ca 20 bc b8 6d a5 bc 08 a6 d1 bc ac e6 a1 3c
       -0.009813882 -0.02019392 -0.025591865 0.019763313
000040 60 64 36 bd 08 21 3d bd c6 38 27 3d 9a 36 2e 3d
       -0.04452932 -0.04617408 0.040825628 0.04253254
000050 00 af 72 bb 22 84 77 3d e8 a1 18 bd 58 88 60 bc
       -0.0037030578 0.060428746 -0.03726378 -0.013704382
000060 f0 49 68 bd ec 66 0d 3d 30 20 18 3d f8 53 96 bc
       -0.056711137 0.034521982 0.03714007 -0.018350586
000070 a8 dd 39 bd 0c db f0 3c 1a a3 62 3d b2 80 6b bd
       -0.045377403 0.029401325 0.055331327 -0.05749578
000080 76 7e 28 bd a4 08 96 bc 4a 8e 51 bd 6c 84 85 bc
       -0.041136228 -0.018314667 -0.051161088 -0.016298495
000090 06 75 18 3d 84 18 e7 3c 80 73 c5 ba 60 52 c3 3b
       0.037220977 0.028209932 -0.0015064329 0.0059607476
0000a0 4c 36 e9 bc 88 ad 0b bc ca 2d 30 bd bc c5 f9 bc
       -0.028468274 -0.00852526 -0.043012418 -0.030489795
0000b0 f8 95 2d 3d 80 c7 86 bb 60 4f e1 bb 6a 63 2e bd
       0.04237935 -0.0041131377 -0.0068759173 -0.042575277
0000c0 fc a7 e5 bc d4 69 f1 bc 1c ef d4 bc 22 49 14 3d
       -0.028034203 -0.029469408 -0.025992922 0.036202557
0000d0 e4 b4 44 3d 18 bd 04 3c 94 86 ea bc da 51 22 bd
       0.048024073 0.008101724 -0.028628625 -0.03962884
0000e0 da ff 02 3d 76 36 07 bd 2e 3b 61 bd b0 1a 1d bd
       0.03198228 -0.033010922 -0.05498808 -0.03835553
0000f0 58 68 75 bd 88 b9 fb bc f8 a2 7b bc be a7 22 bd
       -0.059913963 -0.030728117 -0.015358679 -0.039710753
000100 70 a1 1d 3c 70 3d 35 3d 04 a1 6a 3d 24 54 0a 3d
       0.009621009 0.044248044 0.057282463 0.03377165
000110 10 3e f0 bc 54 42 37 bd 48 2a 42 3c 0c a6 18 bd
       -0.029326469 -0.04474099 0.011850901 -0.03726773
000120 a0 3a af 3b 80 a6 3c bb 20 58 fd bc 3c 3d d4 3c
       0.005347565 -0.0028785765 -0.03092581 0.025908105
000130 1e ca 1b bd f6 82 36 3d fa 8f 50 3d 10 a8 53 3c
       -0.03803455 0.044558488 0.050918557 0.012918487
000140 0a 57 3f bd 4a ef 6e 3d 16 cb 16 3d 7a 10 09 bd
       -0.046713866 0.058333673 0.03681477 -0.03346298
000150 b6 cb 6e bd 98 cd 47 bd 10 eb d6 3b 0c 24 a2 3c
       -0.058299743 -0.048780054 0.0065587834 0.01979258
000160 fc c8 4d 3d f0 b3 08 3d a0 69 2a bd bc 57 d4 3c
       0.0502405 0.033374727 -0.041604638 0.025920741
000170 d4 df 53 3d dc 41 3c bd 00 63 1b bc 8a 98 62 3d
       0.05172713 -0.045961246 -0.009484053 0.055321254
000180 e0 b1 19 bb c0 ee ae 3b 48 98 58 bc 10 49 0e 3c
       -0.002345197 0.00533852 -0.0132199 0.008684412
000190 34 38 32 bd 22 00 47 3d 00 a2 65 b9 80 fb 28 3b
       -0.04351063 0.04858411 -0.00021899492 0.0025784671
0001a0 80 8e 6e 3c 92 8b 30 3d 1c fc b7 bc 00 0e 64 3a
       0.014560342 0.043101855 -0.022459082 0.0008699596
0001b0 ec c0 87 3c 30 b9 62 3c 18 e4 96 3c d0 f7 0a 3c
       0.016571485 0.013838097 0.01841931 0.008481935
0001c0 e2 81 5b 3d f0 72 b1 3b a8 6f 59 3c c0 9b 1a 3d
       0.053590663 0.005415313 0.01327125 0.03774619
0001d0 78 9c ef bc 78 5c d5 3c e0 ab 55 bb bc 77 37 bd
       -0.029249415 0.02604507 -0.0032603666 -0.044791922
0001e0 d8 83 35 bc 76 0d 31 3d c8 03 23 3c 3a 63 3f 3d
       -0.011078797 0.043225728 0.009949632 0.04672549
0001f0 88 c1 7d bd 8c 42 ab 3c 58 85 06 bc 28 10 38 bc
       -0.061952144 0.020905755 -0.008210503 -0.011234321
000200 4c 97 1f bd 1a 7a 65 bd 2c 4f 36 3d b0 e3 d3 3b
       -0.038962647 -0.05602465 0.044509098 0.0064663514
000210 e0 c1 1f bc f8 e4 62 bc cc 3d 44 bd aa a3 14 3d
       -0.009750813 -0.013848536 -0.047910497 0.036288895
000220 5c 5c 1b 3d 30 e8 de bb f0 61 bc 3b 98 a7 b8 3c
       0.037929878 -0.0068025813 0.0057489797 0.022540852
000230 ac 6c 73 bd e0 cc 66 bd 80 3b 9d ba 9c 51 9b bc
       -0.05942981 -0.056347728 -0.0011995882 -0.018959813
000240 92 2e 20 3d ce 40 75 3d 74 63 60 bd e4 97 93 3c
       0.039106913 0.059876256 -0.054782346 0.018016763
000250 c2 05 57 3d 72 6b 38 3d 50 49 9e bb 66 39 78 3d
       0.052495725 0.045024343 -0.004830517 0.060601614
000260 e0 58 53 bd c4 42 ae bc 5c 4a 57 3d 80 0a 1d 3d
       -0.05159843 -0.02127207 0.05256115 0.03834009
000270 a0 f6 00 3c 60 d3 0e bc a0 13 fd 3c 40 e1 23 bc
       0.0078713 -0.008717388 0.030893147 -0.010002434
000280 60 0e b7 3b 74 90 2e bd 64 fa 98 3c d8 8c 07 3d
       0.0055864304 -0.04261823 0.018674083 0.033093303
000290 88 b1 1d 3d 00 5a b8 3c 86 11 62 3d a0 3c a2 3c
       0.038499385 0.022503853 0.055192493 0.019804299
0002a0 94 e6 56 3d 6c 9b 05 bd 3a 92 03 3d 5c 32 90 3c
       0.05246599 -0.032618925 0.032121874 0.017602138
0002b0 c4 1b 84 3c a0 5e 69 bb d4 a7 3b bd 4c 39 9c bc
       0.016126521 -0.003560938 -0.04581435 -0.01907029
0002c0 8a 3f 3d bd b0 60 7a bd 80 93 33 bb dc 03 8e 3c
       -0.046203174 -0.061127365 -0.002740115 0.017335825
0002d0 14 6e b4 bc d6 6c 7c bd 50 e6 69 bd e6 56 31 bd
       -0.022025146 -0.06162723 -0.05710441 -0.043295763
0002e0 2e 4a 7c 3d 7c 37 86 3c 96 fa 10 3d aa 51 2f bd
       0.06159418 0.016383879 0.035395227 -0.04280249
0002f0 f0 86 47 3c cc 6e 44 bd 00 56 b1 bc ea 7f 68 3d
       0.012178168 -0.047957227 -0.021647453 0.056762613
000300 94 a6 b5 bc b0 87 02 3d c0 8f ac bb 64 ea ba 3c
       -0.022174157 0.031867683 -0.00526616 0.022816844
000310 e0 60 ac 3c ec bd db 3c d8 ce 71 3c 70 0d 55 bd
       0.021042287 0.02682396 0.014758788 -0.052014768
000320 e4 56 e3 3c 34 e7 74 bd 30 6b 63 3c be 6a 7b bd
       0.027751394 -0.059790805 0.013880536 -0.061381094
000330 b4 cb 08 bd 0e 4c 37 3d d2 7f 5f bd 46 be 3e 3d
       -0.03339739 0.044750266 -0.05456526 0.046568178
000340 06 2c 7a bd 9a 7c 79 3d 7e 4c 7e 3d 76 81 1d bd
       -0.06107714 0.060909845 0.062084667 -0.03845354
000350 a8 3b 2a bd ec 59 61 3d 20 8c 4b bc 84 e3 bf 3c
       -0.0415608 0.055017397 -0.012423545 0.023423918
000360 00 39 89 3b 40 d9 88 bc 9a 05 5d 3d f8 77 51 bc
       0.004187703 -0.016705155 0.05396042 -0.01278495
000370 6c ba 80 bc b0 1a 44 3d 8c c7 2b 3d f0 c9 12 3c
       -0.015713893 0.047877014 0.04193835 0.008959278
000380 3a c0 77 3d d8 68 bb 3c d4 10 06 3d 74 48 a5 3c
       0.060486056 0.022877142 0.032730892 0.02017615
000390 bc 70 da bc c4 ed b0 bc 34 12 71 bd b8 55 2b 3c
       -0.026665084 -0.02159775 -0.05885525 0.010457449
0003a0 f2 c7 38 bd 62 83 0f bd 98 c9 1a 3c 00 00 85 3a
       -0.045112558 -0.035037406 0.009447478 0.0010147095
0003b0 ce 98 0e 3d 18 af b0 bc 9e 26 09 3d 02 e9 4e bd
       0.034813695 -0.021567866 0.033484094 -0.050515182
0003c0 88 1c 79 3c 88 4a 28 3c f2 03 13 bd 68 36 6e bc
       0.015204556 0.010271676 -0.035892434 -0.014539339
0003d0 80 b0 6e bc 3e 06 5f bd d8 8b 3e bc 00 77 37 bd
       -0.014568448 -0.054449312 -0.011630021 -0.04479122
0003e0 98 e1 26 3d 2a 81 60 3d 20 c7 4a 3c 6c a3 f1 bc
       0.040742487 0.05481068 0.012376577 -0.029496871
0003f0 9a b8 15 bd c2 61 41 3d 42 79 5e bd d6 0c 6d bd
       -0.036553003 0.04721237 -0.05431486 -0.05787357

hidden_2.bias f4 [128]
000000 d0 c6 a6 3b f6 ad 1d bd ba db 5b bd 40 c2 4b bc
       0.0050896183 -0.03849598 -0.053676344 -0.0124364495
000010 94 dd d8 bc b2 fa 36 3d e0 10 ff bc 5c 36 c7 bc
       -0.026472844 0.044672675 -0.031135976 -0.024317913
000020 50 cb 90 bc 50 ac a2 3b 00 20 92 bb 9a a5 15 bd
       -0.017675072 0.004964389 -0.004459381 -0.036534883
000030 ac 2d 26 3d a0 2b 6d 3c 06 1e 3e bd 74 9d 8a 3c
       0.0405709 0.014475733 -0.04641535 0.016920783
000040 60 46 e6 3b d6 f3 3b bd ac f3 60 bd c0 32 89 bc
       0.0070274323 -0.045886837 -0.054919884 -0.016747832
000050 78 7b 30 bc 82 6c 2a bd 68 11 b0 3c 2c e3 d6 bc
       -0.010771625 -0.041607387 0.021492675 -0.02623137
000060 fc 00 a4 bc e8 95 03 3d 74 03 87 3c 16 e5 53 3d
       -0.02002 0.032125384 0.016481139 0.051732145
000070 28 c6 6d bc 3c 7f 79 3d 0a 02 43 bd 84 1b 24 3d
       -0.014512576 0.060912356 -0.047609366 0.040065303
000080 9c 0e 6f bd 98 17 37 3c 34 bd 3f 3d 68 b8 9f bc
       -0.058363542 0.011175059 0.046811298 -0.019497111
000090 80 78 02 3c a0 ec f0 3c 10 c0 93 3b 80 42 4b 3d
       0.0079633 0.029409707 0.0045089796 0.049623966
0000a0 80 62 6c 3a a0 1d 02 3b 00 60 13 39 d4 42 1d bd
       0.0009017363 0.0019854084 0.00014054775 -0.03839381
0000b0 f8 21 1e bd bc dc 20 bd b0 8e 90 bb 98 d0 94 bc
       -0.038606614 -0.03927301 -0.004411541 -0.018165872
0000c0 70 9f 7a 3c 70 03 87 bc a0 88 4c bd c2 e7 42 3d
       0.015296802 -0.016481131 -0.049934983 0.047584303
0000d0 a8 11 32 bc fe 36 1a 3d b6 e3 38 bd 68 3d 26 bd
       -0.010868467 0.0376501 -0.045139037 -0.040585905
0000e0 14 f1 b7 3c 00 ec 7f 3c 5a f6 37 bd d0 cb 4d bc
       0.022453822 0.015620232 -0.044912674 -0.0125608
0000f0 54 75 a9 3c f0 f0 7b 3d 90 fd 38 bc 94 c6 ed bc
       0.02068583 0.061509073 -0.011290923 -0.029025353
000100 90 9f 63 bc 22 cd 64 3d f8 95 bb bc 1a 7d 41 bd
       -0.013893023 0.055859692 -0.02289866 -0.047238447
000110 38 ff 45 bd 84 f5 b3 3c 10 dc 60 bc 10 f4 a6 3c
       -0.0483391 0.021967657 -0.013724342 0.02038005
000120 76 29 79 bd fa 4e 41 bd b2 4a 24 bd 00 5c 2d 39
       -0.060830556 -0.04719446 -0.040110298 0.00016532838
000130 d0 7a ac bb 8c 06 07 3d 46 1b 57 bd 82 11 19 3d
       -0.005263664 0.032965228 -0.052516244 0.037370212
000140 c0 64 83 ba ac de c7 bc 8a ae 21 3d 64 b2 36 3d
       -0.0010024533 -0.02439817 0.039473094 0.04460372
000150 84 4d a4 bc c0 0b 6a 3d 88 94 44 3d 08 3a d6 3c
       -0.020056494 0.057140112 0.047993213 0.026150718
000160 ba c9 29 3d 9c a9 3a 3d 10 d6 09 3d 7a e3 75 bd
       0.041452147 0.04557191 0.03365141 -0.06003139
000170 28 2f 0a bc 38 89 66 3d dc d3 37 bd e0 99 d2 3b
       -0.0084340945 0.056283206 -0.04487978 0.0064270347
000180 50 a0 08 3c 00 5e 8b 3a b4 33 88 bc fe 6b 2d bd
       0.008339003 0.0010632873 -0.016626216 -0.042339318
000190 f0 8b e4 3b 5e cf 1c bd c8 4c 5c 3c 98 8f 70 3c
       0.0069746897 -0.0382837 0.01344604 0.014682673
0001a0 e0 29 ad bc 3e d1 45 3d 04 49 1c bd dc 1d 61 bd
       -0.021138132 0.048295252 -0.03815557 -0.054960117
0001b0 7a 35 1b 3d be b7 72 3d b2 2c 67 bd 80 0e 86 bb
       0.037892796 0.05925726 -0.05643911 -0.004091084
0001c0 9c 10 41 bd 44 7b 1f 3d 64 a3 ad bc 78 5c 67 bc
       -0.04713498 0.038935915 -0.021196075 -0.014121167
0001d0 90 3e b8 bb c0 89 90 3b 28 24 52 3d 84 5f 83 bc
       -0.0056226924 0.0044109523 0.051304013 -0.016036756
0001e0 a0 d9 71 3d ae 49 5a 3d 80 d5 08 3d 60 90 79 3b
       0.059045434 0.053292923 0.033406734 0.003808044
0001f0 de e6 1f bd 3c fa 9a bc 74 fd e8 3c 40 fa 4e bb
       -0.03903853 -0.01891815 0.028441168 -0.0031582266

output_layer.weight f4 [7, 128]
000000 21 d2 a8 bd 87 6e 94 bc 44 3e 75 bd 84 20 0d 3d
       -0.08243204 -0.01811911 -0.059873834 0.034454837
000010 ae a2 8d bd aa 7f 07 3d dd 8f 7a 3d 04 ff 58 3d
       -0.06915794 0.033080734 0.061172355 0.052977577
000020 36 25 ec bb 5b f5 a3 bd 3a 57 f2 bc a6 7c 8b bc
       -0.0072065843 -0.08005782 -0.029582608 -0.01702721
000030 44 e4 04 bd a3 18 e8 3c 18 45 a9 bb d1 77 a3 bd
       -0.032444254 0.02833206 -0.0051657073 -0.079818375
000040 7d 34 bc 3b 8a f8 2e bd 51 d2 e0 3c 90 9d 5d 3d
       0.005743562 -0.042717494 0.027444037 0.05410534
000050 17 3e e4 bc 43 d5 7c 3d 80 cc 67 bd d2 06 b0 bd
       -0.027861638 0.06172682 -0.05659151 -0.08595051
000060 1c cc 9c 3d d4 eb ff bb e4 c0 a2 3d 02 c1 04 bd
       0.07656118 -0.0078100953 0.07946947 -0.03241063
000070 f1 45 34 3d f0 f2 ac 3c 0d c6 45 3d 37 35 9f bd
       0.044012014 0.021111935 0.04828458 -0.07773822
000080 3d b7 72 3b 61 84 7d bc 6b 63 02 bc de 1e b5 3c
       0.0037035488 -0.015473456 -0.007958273 0.022109445
000090 3f aa 72 3d 64 37 ed 3a 09 61 3a bd e0 f5 35 bd
       0.05924439 0.0018098173 -0.045502696 -0.044423938
0000a0 33 a5 84 bd 97 6f 78 3d 2b 5e a6 3d be 12 56 3d
       -0.06476822 0.060653295 0.0812343 0.052263968
0000b0 d3 a9 57 bd 15 a8 8a bd 26 93 9b bc 2b 3c 01 bd
       -0.05265219 -0.0677034 -0.018991064 -0.03155152
0000c0 97 11 a8 3d 5c 41 a3 3d b2 e0 b7 bc 27 54 93 3d
       0.0820648 0.07971451 -0.02244601 0.07193785
0000d0 c0 bf ad bd d7 c5 af 3d aa cd 66 3c 0e 0f 51 bc
       -0.08483839 0.08582657 0.01408712 -0.012759937
0000e0 fe 54 93 3d 5c 3d 81 3d aa c5 9f bd 50 93 a6 bc
       0.07193945 0.063105315 -0.07801373 -0.020333916
0000f0 99 b9 de bc d8 6f b1 bd 8c ab ab bd 31 1a e6 3c
       -0.02718811 -0.086639106 -0.08382329 0.02808866
000100 3a 53 e6 bc 5e 44 ac 3d dd 96 d5 bc 9b b8 a5 3d
       -0.028115857 0.084114775 -0.026072914 0.08091851
000110 df c4 1e bd bb d5 bc bc ff d1 57 3d a9 b8 25 3d
       -0.03876197 -0.023051133 0.052690502 0.04045931
000120 df d4 89 bd 75 27 1f bd ac 9a 69 bd 0b ed 97 3d
       -0.06730055 -0.03885599 -0.057032272 0.07418259
000130 05 1b c7 bc e4 31 71 bc fe 95 66 3d ec 89 1b bd
       -0.024304876 -0.0147213675 0.056295387 -0.03797333
000140 e3 60 19 3c ee bf 73 bd a9 e8 9c 3c 18 5f af 3c
       0.0093614785 -0.05950921 0.01915391 0.021407649
000150 7a 4e 72 3d a4 ac 3c bd 08 52 2d bd ec 04 60 3d
       0.059156872 -0.04606308 -0.04231456 0.054692194
000160 7e 76 6a 3d 92 28 3b bd f0 c2 b0 3d e8 48 89 bc
       0.05724191 -0.045692988 0.086309314 -0.016758397
000170 e2 a9 a1 3d 25 60 67 bd ee 82 30 3d da 14 82 bd
       0.07893731 -0.056488175 0.043093614 -0.06351633
000180 14 64 fc 3c fb 9b f9 3c d6 d3 ac 3d e5 6b 93 bd
       0.03080944 0.030469885 0.08438842 -0.071983136
000190 0d 5e 94 bd d3 34 a5 bd b5 91 87 bc 2a 07 88 3d
       -0.07244501 -0.08066716 -0.01654897 0.066419914
0001a0 b4 90 7c 3d cd 46 92 3d 11 2c 43 3d 8c bc 08 3d
       0.061661437 0.071424104 0.047649447 0.033382937
0001b0 3f 03 d3 bc 50 bd 85 bc d4 3c a5 3d c2 78 82 bd
       -0.025758384 -0.016325623 0.08068243 -0.06370689
0001c0 43 9e 86 bc 51 02 84 bd 19 ab 8b bc cf d0 ed 3c
       -0.016432887 -0.06445754 -0.01704936 0.029030232
0001d0 e1 fe 26 bc fb 0a aa 3d c4 85 a9 3d 5f e5 49 3d
       -0.010192604 0.083028756 0.08277467 0.04929101
0001e0 16 39 7d 3d 1b d4 14 bc 99 cf 42 bd 66 82 fc bc
       0.06182202 -0.009083773 -0.04756126 -0.030823898
0001f0 cc 6c 6b bd 73 6a 53 3d 34 2e 18 3d bc fb 47 bd
       -0.057476804 0.05161519 0.037153438 -0.048824057
000200 81 72 a8 bd 2f 82 89 3d fa 58 99 3d fb c9 93 bd
       -0.08224965 0.06714284 0.07487674 -0.07216259
000210 ec e7 87 3d 02 54 a7 bd 82 57 1b bb 19 59 41 3d
       0.066360325 -0.0817032 -0.0023703282 0.04720411
000220 7b 82 53 bc 4d b9 25 bd cb 87 18 bd c1 fa 36 bd
       -0.012909527 -0.04045992 -0.037238877 -0.04467273
000230 74 b6 b1 bb 23 e1 54 3d cb 25 81 bc 57 f2 e7 3c
       -0.0054233614 0.05197252 -0.015765091 0.028313799
000240 ab c8 8b bd 1e df ac 3c 2f b7 5f 3d 78 81 63 3d
       -0.06825384 0.021102484 0.054618057 0.055543393
000250 8c d5 f0 bc 4b b3 9c bd 10 42 3f 3d cb f9 38 3c
       -0.029398702 -0.07651385 0.04669386 0.011290024
000260 ec cb 9e ba 54 3b 89 3d 3e e1 a3 3d b3 90 77 3c
       -0.0012115217 0.06700769 0.08001946 0.015110183
000270 c0 15 e2 bb 27 61 94 bd d0 4c 9a 3d 0f c1 7d bd
       -0.0068995655 -0.07245093 0.07534182 -0.061951693
000280 83 42 13 bb 5d bd bb bc 40 46 a1 bd d7 b4 48 3d
       -0.0022470064 -0.022917444 -0.07874727 0.049000587
000290 cf c5 49 3d 80 2b d8 3c de 48 61 3c 17 0d 9e 3d
       0.04926091 0.02638793 0.013750283 0.077173404
0002a0 25 70 92 3d 3f 31 58 ba 33 00 96 3d 3b f9 2f 3d
       0.07150296 -0.00082470843 0.07324257 0.042962294
0002b0 94 11 80 3d c9 f2 8d 3d e0 02 02 3d 5d d0 37 bc
       0.06253353 0.06931073 0.031741023 -0.011219111
0002c0 4e 78 64 3d 6c e5 72 3c d8 5d 1e bd f2 5d 37 bd
       0.055778794 0.014825206 -0.038663715 -0.044767328
0002d0 f7 4d 2b 3d 50 ec 5e 3d 2d 52 2b 3d 0f 13 fa bb
       0.0418224 0.054424584 0.041826416 -0.0076316665
0002e0 7e cf aa bd fe 7b a1 3d ac 15 b3 bd 5b 71 79 bc
       -0.08340357 0.07884978 -0.08744368 -0.01522478
0002f0 4e 1a b0 3d 28 e1 6c bd fb 9f 03 3c ee 26 32 bc
       0.08598767 -0.057831913 0.008033748 -0.010873539
000300 ac 8a 5f 3d 38 00 a1 bd 07 91 83 bd 88 66 92 bd
       0.054575607 -0.0786137 -0.06424146 -0.071484625
000310 d9 7f a1 bd df dc 59 3d 41 0e 8c 3d e4 5c 88 bd
       -0.07885713 0.053189155 0.06838656 -0.066583425
000320 a1 b3 a9 bd bc 44 f2 3c e7 e9 b2 3d 9d 1e ee 3a
       -0.082862146 0.02957379 0.087360196 0.0018167082
000330 30 d7 a3 3d b3 f1 74 bc 93 01 49 3a 90 2b 55 bd
       0.08000028 -0.014950204 0.0007667776 -0.052043498
000340 ce e4 26 3a 93 d4 52 3d d3 ba 88 3d 84 6e 96 bd
       0.0006366492 0.051472258 0.06676259 -0.07345298
000350 90 f0 82 bd 8c 9e b1 3d f3 1c 2e 3d 02 a1 5d 3c
       -0.0639354 0.086728185 0.042508077 0.013527157
000360 2a 67 ab bd ba 09 45 bc 0e e0 39 bd 22 53 ad 3d
       -0.08369286 -0.012026245 -0.04537969 0.08463122
000370 43 8c bf 3c c8 84 22 bd e1 6c 90 bd 4a a6 9a 3b
       0.023382312 -0.03967741 -0.07052017 0.00471953
000380 45 61 37 3d db 69 39 3d 8d 99 1e 3d b1 ef 2c bc
       0.044770498 0.045266967 0.038720656 -0.010555194
000390 43 2e a7 3d 67 2c 7b bd a6 dd 71 3d d4 6d 12 bd
       0.081631206 -0.061321642 0.05904927 -0.03574927
0003a0 db 9f 8a 3d 55 e9 99 3d 0e 3f 33 bd 00 0e 4a 3d
       0.06768771 0.07515208 -0.043761306 0.049329758
0003b0 79 71 b4 bd d7 2f f4 3c f3 a8 c7 bc 7a ad 8d bd
       -0.08810706 0.029807968 -0.024372553 -0.06917854
0003c0 be 89 b2 3d 12 81 17 bc ba 18 a4 3d 56 59 29 bc
       0.087176785 -0.009247081 0.08012529 -0.010336241
0003d0 33 78 93 bd 0f c9 42 bd 57 d6 35 3c e0 64 87 bd
       -0.072006606 -0.047555026 0.011098466 -0.06611037
0003e0 23 67 87 bd 4f ad a8 3c d5 0f 46 3d 3a e6 79 3d
       -0.06611469 0.020590452 0.048354942 0.061010577
0003f0 7b 48 0f bd 62 a2 2c bd fc f5 a4 3d c7 64 7a 3c
       -0.034981232 -0.042147048 0.0805473 0.015282816

output_layer.bias f4 [7]
000000 f4 75 20 3d 6e d3 4d bd 94 5e 0a 3d 70 e9 83 3d
       0.03917499 -0.050250463 0.033781603 0.06441009
000010 ff 7a 95 bd fd b0 d4 ba ae 51 8d 3d
       -0.0729885 -0.0016227063 0.06900345
