saved_models/critic_episode_1000.pth (torch, 290048 bytes, 5 tensors)

state_hidden_1.weight f4 [256, 147]
-0.037239265 0.0367337 0.02416042 -0.08212381 0.030808466 -0.06368552 -0.026124515 0.022005435
0.044729713 -0.06748317 0.007522983 -0.07464963 0.037489485 -0.0014641744 0.06301893 0.055197425
-0.073269434 -0.06037268 -0.08174806 0.018398486 0.0784696 0.07540732 -0.031456143 0.060761154
0.0027923987 -0.04265249 -0.03189353 0.055581443 0.040983975 -0.05227186 -0.024119677 0.05189507
-0.077779956 0.063247226 -0.034421638 -0.028418332 0.009536317 0.024112942 0.044513866 -0.04543656
-0.05466862 0.042400952 0.041075904 -0.06925557 -0.013208265 0.06439759 0.067719825 -0.076160826
-0.023075417 0.040165264 0.056626216 -0.04049558 0.015363507 0.04997631 -0.03927252 -0.055387393
0.020368008 -0.07016503 -0.02712509 0.042412173 0.040399853 -0.0015476597 0.005437324 -0.03393342
0.057183888 -0.045718167 -0.069155805 0.011029811 0.060420338 -0.031961028 -0.078920394 -0.07075916
-0.019812861 0.0008444203 0.023961132 0.0058731274 0.03011957 0.040203992 0.022513751 0.045043115
-0.07192202 -0.050957862 0.0025051506 0.018810289 0.01741838 -0.011240043 -0.04580508 -0.017304111
-0.06169253 -0.06979486 -0.06341817 0.023187337 -0.030447908 0.0055543077 0.014567531 0.04654949
0.015534411 0.04199036 -0.006230194 -0.07833352 -0.067096286 0.08102202 0.054800816 0.05940935
-0.0006113869 0.03266534 0.031498834 -0.025237747 0.02887663 -0.07559498 0.082037814 0.07647463
0.04788088 -0.021480484 0.008069349 0.062682144 -0.06216081 0.040643405 -0.059810948 0.023732208
-0.013229307 -0.050351392 0.06316334 -0.061835688 0.04637433 -0.049599513 0.08007277 0.029610783
-0.018726971 0.052787352 -0.005656484 0.0073995492 0.03274923 -0.04291643 0.06512205 0.001606545
-0.040292446 -0.07892831 0.03161805 -0.014446436 -0.05390499 -0.073530525 0.03943701 -0.07187248
0.08013011 0.061722744 -0.022576982 0.0072782985 0.016409911 -0.0028776834 0.05048735 0.022525875
0.068833135 0.012880794 0.002693457 0.014673699 0.058475684 -0.025868425 0.06190396 -0.064958416
-0.07581456 0.006936678 0.024392992 0.051200405 0.057061803 -0.08127973 -0.06429987 0.039239492
0.04731895 -0.048180014 -0.035456322 0.014495342 0.06598169 0.0067133 0.070264414 0.05148303
-0.04228114 -0.078944966 0.028769076 0.03643545 -0.031242095 -0.054917354 -0.000723838 0.06779512
0.018841034 0.018446222 -0.026122637 -0.005914757 0.05663946 0.016539304 -0.0066641388 -0.03478993
0.015090751 0.04181807 -0.05530797 0.0006829261 -0.006839801 -0.043851078 0.06588394 0.0058615645
0.07275528 -0.066294305 -0.0042000674 -0.040581737 -0.08235017 -0.069897965 0.06502384 0.045325056
-0.010462117 0.04558381 0.053137302 0.060299788 -0.01893034 0.010443653 0.02183587 0.044038333
-0.039264407 0.006057599 -0.03972068 -0.052621502 -0.07852628 0.06680199 -0.0029017527 -0.009902478
-0.00011715086 0.027497713 -0.026346417 0.057328165 0.022145033 -0.0331216 0.020768778 -0.06607758
-0.0003106194 0.061141197 0.051355813 -0.07830446 -0.018264553 0.021275226 0.07548728 0.06815626
-0.015355209 -0.06551562 -0.016610272 0.019211719 -0.033285614 -0.03388692 0.024050763 -0.068571396
0.00012761234 -0.013953066 0.06267812 -0.07975334 -0.0787793 -0.07014234 -0.07086543 -0.002298497
00000000: 3388 18bd 1476 163d 13ec c53c 8730 a8bd
00000010: 0962 fc3c 8e6d 82bd 1403 d6bc be44 b43c
00000020: 8136 373d 9e34 8abd 5b83 f63b e8e1 98bd
00000030: 938e 193d 8ae9 bfba 1210 813d b216 623d
00000040: 490e 96bd 5849 77bd 876b a7bd 6cb8 963c
00000050: abb4 a03d 276f 9a3d 28d8 00bd b0e0 783d
00000060: ad00 373b 61b4 2ebd caa2 02bd 5ea9 633d
00000070: d0de 273d 051b 56bd a196 c5bc ed8f 543d
00000080: 194b 9fbd c387 813d b4fd 0cbd 90cd e8bc
00000090: 363e 1c3c 8188 c53c 2c54 363d b01b 3abd
000000a0: 34ec 5fbd 9fac 2d3d 353f 283d ddd5 8dbd
000000b0: 7b67 58bc e2e2 833d b1b0 8a3d 35fa 9bbd
000000c0: a808 bdbc 5584 243d e4f0 673d b1de 25bd
000000d0: 38b7 7b3c f6b3 4c3d 39dc 20bd e4dd 62bd
000000e0: cfda a63c afb2 8fbd 7035 debc 63b8 2d3d
000000f0: 517a 253d d8da caba 942b b23b c5fd 0abd
00000100: a739 6a3d f942 3bbd 8fa1 8dbd 61b6 343c
00000110: 517b 773d 91e9 02bd 04a1 a1bd 2eea 90bd
00000120: 954e a2bc 165c 5d3a 234a c43c 5d73 c03b
00000130: 51bd f63c f1ac 243d c26e b83c 217f 383d
00000140: da4b 93bd 31b9 50bd 742d 243b 0918 9a3c
00000150: feb0 8e3c 2828 38bc 1c9e 3bbd 5ac1 8dbc
00000160: 4eb1 7cbd 9cf0 8ebd 63e1 81bd 5ff3 bd3c
00000170: e46d f9bc e900 b63b a7ac 6e3c aeaa 3e3d
00000180: 0b84 7e3c 15fe 2b3d a826 ccbb 536d a0bd
00000190: c769 89bd dfee a53d d276 603d 3857 733d
000001a0: 7b45 20ba 17cc 053d ec04 013d 64bf cebc
000001b0: af8e ec3c 8ad1 9abd 7103 a83d bb9e 9c3d
000001c0: be1e 443d d7f7 afbc 4e35 043c 7f5f 803d
000001d0: 559c 7ebd b379 263d 53fc 74bd 0c6a c23c
000001e0: bcbf 58bc 433d 4ebd c85b 813d 6b47 7dbd
000001f0: 02f3 3d3d dc28 4bbd 31fd a33d 5092 f23c
00000200: 4e69 99bc 8d37 583d 075a b9bb eb77 f23b
00000210: 0e24 063d 23c9 2fbd b65e 853d b492 d23a
00000220: b109 25bd 2aa5 a1bd ee81 013d bfb0 6cbc
00000230: 7bcb 5cbd 2c97 96bd b488 213d e131 93bd
00000240: 411b a43d fdd0 7c3d 5df3 b8bc cb7e ee3b
00000250: 146e 863c 8497 3cbb d3cb 4e3d 2f88 b83c
00000260: 63f8 8c3d f709 533c b684 303b f469 703c
00000270: 3384 6f3d 05ea d3bc 028f 7d3d eb08 85bd
00000280: aa44 9bbd 134d e33b d0d3 c73c 84b7 513d
00000290: a3b9 693d fd75 a6bd a6af 83bd 97b9 203d
000002a0: 84d1 413d 6858 45bd a63a 11bd df7d 6d3c
000002b0: 6921 873d 3efb db3b cae6 8f3d dfdf 523d
000002c0: fd2e 2dbd e6ad a1bd 20ad eb3c 573d 153d
000002d0: 6cef ffbc 05f1 60bd f2bf 3dba 2bd8 8a3d
000002e0: 8358 9a3c 881c 973c 24ff d5bc 94d0 c1bb
000002f0: c7fe 673d 6f7d 873c d95e dabb e37f 0ebd
00000300: 333f 773c 6d49 2b3d 9c8a 62bd 6506 333a
00000310: 6920 e0bb 309d 33bd 29ee 863d 5e12 c03b
00000320: b800 953d 4fc5 87bd b8a0 89bb 0939 26bd
00000330: 35a7 a8bd aa26 8fbd 382b 853d c4a6 393d
00000340: 4d69 2bbc 17b6 3a3d 80a6 593d e9fc 763d
00000350: cd13 9bbc db1b 2b3c 23e1 b23c 8a61 343d
00000360: b7d3 20bd d37e c63b 27b2 22bd a589 57bd
00000370: 63d2 a0bd 7bcf 883d 552b 3ebb 013e 22bc
00000380: e4ae f5b8 e242 e13c 71d4 d7bc f0d0 6a3d
00000390: 8069 b53c 84aa 07bd 4923 aa3c af53 87bd
000003a0: a1da a2b9 316f 7a3d 795a 523d 175e a0bd
000003b0: 8b9f 95bc 6249 ae3c 1399 9a3d 8295 8b3d
000003c0: 6a94 7bbc 0e2d 86bd 4412 88bc e561 9d3c
000003d0: 7f56 08bd 03cd 0abd 1b06 c53c 296f 8cbd
000003e0: adcf 0539 679b 64bc 635d 803d b855 a3bd
000003f0: 0b57 a1bd caa6 8fbd e521 91bd 61a2 16bb

state_hidden_1.bias f4 [256]
-0.0268456 -0.038100775 0.04597991 -0.055377826 -0.03204456 0.075542286 0.03470575 0.0064419503
-0.06876266 0.063651666 0.069975324 -0.06459588 -0.07252306 0.08185324 0.05028817 0.053138874
-0.070061 -0.059413325 0.0719728 0.034479413 0.009065127 -0.015227744 0.05956546 0.010130044
0.021572828 -0.0356627 -0.030898312 -0.061926812 -0.0718263 0.024428016 -0.046591472 0.07389365
0.05514925 -0.005354704 -0.07928837 0.05261585 0.0014837306 0.038959954 0.011319114 0.036244627
0.026145063 0.04712799 0.07159217 -0.060124516 0.03933241 -0.007898554 -0.036953364 -0.03592975
0.07731504 -0.033164155 0.00226901 -0.020103235 0.075406566 0.026514225 0.07095872 0.07468709
0.059804164 -0.050604504 -0.06891658 0.055556066 -0.033271827 -0.032320827 0.02829297 0.0070911814
-0.008902286 -0.0019211759 0.081917934 -0.025056686 -0.029833551 -0.023077147 0.01381513 -0.017861992
0.03510951 0.07627434 0.075949274 0.04674223 -0.06301924 0.034190748 0.04891174 -0.0667262
0.05885447 0.0011863848 0.017919775 -0.036442157 -0.055018794 -0.0033936093 -0.026289785 -0.043415803
-0.071503945 -0.016925994 0.04302527 -0.07547923 0.04579603 0.062703826 -0.0004645231 0.035846658
-0.007924904 -0.066093065 -0.024637599 -0.04849797 -0.041868206 0.04104746 0.04250794 -0.07341093
0.0038488705 -0.027541475 -0.059886154 0.01167853 -0.019339507 0.037432164 -0.08046052 -0.043595165
-0.07559339 -0.07921679 -0.04640515 -0.035142466 -0.001998919 -0.022322426 0.015653037 0.029642098
-0.0699262 0.03368711 0.02088873 0.06247184 0.07944203 -0.009576215 -0.06592011 0.05894358
-0.038249377 -0.06627888 -0.047065828 0.08036898 0.021201858 0.03369841 0.003779691 0.074571334
-0.067882195 0.014594805 -0.05508631 0.046284728 0.07590501 -0.07961007 -0.0038769315 -0.018261887
-0.07662843 0.040731058 -0.036029432 0.045937248 -0.02182358 -0.027302768 -0.026423758 0.05666236
-0.06553228 0.04550168 -0.07057923 0.037131526 0.01781105 -0.04573089 -0.011887268 0.048395008
-0.033724267 -0.05584363 -0.0721615 0.059627645 -0.04994021 -0.04450004 -0.046757758 0.012520699
0.01561123 -0.03484589 -0.050601427 0.03602764 -0.03902398 0.04754923 0.015035013 -0.00092576223
-0.04509371 0.04483895 0.016743725 -0.059364498 0.041786637 0.030036911 -0.0044319406 0.042575702
0.04060554 -0.078118056 -0.032913513 0.0053216876 0.07385506 -0.017210076 0.08103823 -0.031934716
-0.024916125 0.066731885 0.010749041 -0.040752877 -0.08234841 0.040250413 0.0775936 -0.02566535
0.005092921 -0.027057484 -0.013078136 0.053372685 0.031083314 0.02736536 -0.024770973 0.04359306
-0.025976688 0.06662553 -0.07238445 -0.06330879 -0.050090082 -0.029236352 0.028482161 0.019433692
-0.039604876 -0.031757787 0.032960374 0.061124258 -0.048867434 0.038796168 -0.07267411 0.070088916
0.031121572 0.056064244 -0.0584582 0.079553545 -0.050725214 0.021572946 0.009510143 -0.032691058
-0.06880922 -0.00093901606 0.031301845 -0.07188483 0.0008032331 -0.002606324 -0.015436177 -0.07489105
-0.0072479565 -0.029380541 0.06598992 -0.06918108 -0.030863259 0.040366344 -0.015404576 0.025756987
-0.056118667 0.026097534 -0.004509379 0.03289795 -0.003127589 0.04988902 -0.04845062 -0.029014852
00000000: 4eeb dbbc 8f0f 1cbd 6e55 3c3d dcd3 62bd
00000010: 2841 03bd eab5 9a3d 9e27 0e3d ff16 d33b
00000020: 70d3 8cbd ce5b 823d 394f 8f3d d84a 84bd
00000030: f886 94bd aca2 a73d f8fa 4d3d 26a8 593d
00000040: 247c 8fbd 635b 73bd 7a66 933d 493a 0d3d
00000050: e685 143c ca7d 79bc e9fa 733d 7cf8 253c
00000060: 80b9 b03c 0d13 12bd 751e fdbc f8a6 7dbd
00000070: ab19 93bd 431d c83c b3d6 3ebd 8e55 973d
00000080: 2ee4 613d 8376 afbb f161 a2bd b883 573d
00000090: bd79 c23a 7994 1f3d ce73 393c 3f75 143d
000000a0: 2c2e d63c 4709 413d ea9e 923d 2045 76bd
000000b0: 051b 213d f068 01bc 695c 17bd 132b 13bd
000000c0: 5957 9e3d 23d7 07bd acb3 143b 8aaf a4bc
000000d0: c26e 9a3d 5c34 d93c ce52 913d 8cf5 983d
000000e0: 36f5 743d ab46 4fbd 2324 8dbd c28e 633d
000000f0: 0a48 08bd d862 04bd a9c6 e73c 245d e83b
00000100: e5da 11bc f7cf fbba 97c4 a73d ae43 cdbc
00000110: 7e65 f4bc 490c bdbc db58 623c 5053 92bc
00000120: fdce 0f3d b935 9c3d 4b8b 9b3d c874 3f3d
00000130: 3b10 81bd 990b 0c3d ad57 483d bfa7 88bd
00000140: 6211 713d 7880 9b3a 7ecc 923c 5f44 15bd
00000150: 635b 61bd 5167 5ebb ad5d d7bc c5d4 31bd
00000160: a970 92bd 62a8 8abc 443b 303d db94 9abd
00000170: 9e94 3b3d dd6a 803d 3c8b f3b9 f2d3 123d
00000180: 75d7 01bc cd5b 87bd cad4 c9bc cfa5 46bd
00000190: ff7d 2bbd 6221 283d ce1c 2e3d 7858 96bd
000001a0: 553d 7c3b a99e e1bc 2f4b 75bd 4e57 3f3c
000001b0: e36d 9ebc 7852 193d 7cc8 a4bd d890 32bd
000001c0: b5d0 9abd 6a3c a2bd 5413 3ebd 8cf1 0fbd
000001d0: 4c00 03bb 85dd b6bc cc3a 803c fcd3 f23c
000001e0: 7835 8fbd 7ffb 093d d81e ab3c 79e2 7f3d
000001f0: 81b2 a23d 8fe5 1cbc 1f01 87bd d36e 713d
00000200: 61ab 1cbd 39bd 87bd 19c8 40bd 7e98 a43d
00000210: 85af ad3c 5807 0a3d b1b4 773b dbb8 983d
00000220: d205 8bbd 0d1f 6f3c 2fa2 61bd 0e95 3d3d
00000230: 1674 9b3d 9b0a a3bd 1e14 7ebb f499 95bc
00000240: 5eef 9cbd 9cd5 263d 9993 13bd b228 3c3d
00000250: 5dc7 b2bc 0eaa dfbc a376 d8bc ca16 683d
00000260: ca35 86bd f85f 3a3d d88b 90bd 3a17 183d
00000270: 7be8 913c 5050 3bbd d1c2 42bc d839 463d
00000280: 7522 0abd 4abc 64bd 69c9 93bd 1e3c 743d
00000290: 1b8e 4cbd ad45 36bd 1085 3fbd 9e23 4d3c
000002a0: 3fc6 7f3c 90ba 0ebd 7143 4fbd b891 133d
000002b0: 9cd7 1fbd fbc2 423d 6a55 763c daae 72ba
000002c0: 2fb4 38bd 0ca9 373d 232a 893c 3028 73bd
000002d0: 7728 2b3d f80f f63c d039 91bb dc63 2e3d
000002e0: ff51 263d 5cfc 9fbd 52d0 06bd 8d61 ae3b
000002f0: 5241 973d 25fc 8cbc 5ff7 a53d facd 02bd
00000300: e71c ccbc baaa 883d bf1c 303c 7dec 26bd
00000310: 48a6 a8bd 9edd 243d 65e9 9e3d 2440 d2bc
00000320: 85e2 a63b a8a7 ddbc ae45 56bc 519d 5a3d
00000330: 6fa2 fe3c 522d e03c 7fec cabc a38e 323d
00000340: 10cd d4bc f772 883d 4c3e 94bd 0aa8 81bd
00000350: 422b 4dbd 1381 efbc 6c53 e93c 6833 9f3c
00000360: b938 22bd 7414 02bd 7501 073d 6e5d 7a3d
00000370: 3829 48bd bbe8 1e3d 2ad6 94bd c78a 8f3d
00000380: abf2 fe3c 9fa3 653d de71 6fbd f8ec a23d
00000390: 3ec5 4fbd bfb9 b03c 6ed0 1b3c 0fe7 05bd
000003a0: d9eb 8cbd 4d28 76ba 5d36 003d 5b38 93bd
000003b0: 1090 523a dcce 2abb 05e8 7cbc 7b60 99bd
000003c0: 4480 edbb 76af f0bc b925 873d cfae 8dbd
000003d0: f2d4 fcbc 2e57 253d 7a63 7cbc 5100 d33c
000003e0: b0dc 65bd 7fca d53c 6ac3 93bb 00c0 063d
000003f0: 3cf8 4cbb 6e58 4c3d 2874 46bd 8eb0 edbc

combined_hidden_2.weight f4 [128, 263]
-0.049196657 0.04314041 0.05924971 0.044541128 -0.008831806 0.022083461 0.0141869 0.058527518
-0.019631894 -0.019970661 -0.015475407 0.039171655 -0.058141436 -0.015116381 0.050883215 -0.039917514
-0.010000282 0.059917063 0.020629246 -0.002929704 0.025740236 0.04500778 -0.059320748 0.0055314247
0.057787813 -0.024083441 0.019028367 -0.025467647 -0.009937778 -0.019530071 0.0034648245 0.019430086
-0.021221157 -0.04342803 -0.0024560578 -0.03048371 0.04911454 0.025565427 0.053622734 -0.020091588
0.017566985 0.024121555 -0.034174196 -0.016412739 0.0543014 -0.050956026 0.038901698 -0.032095578
0.055264056 -0.032667033 0.020320918 -0.05417221 0.027092835 0.0004203973 -0.030100618 -0.043554876
0.059080996 -0.004905316 -0.049527727 0.012329907 -0.003544911 -0.026080862 0.008525756 -0.042542785
-0.041678026 0.052361503 0.042242523 0.03257425 0.037947834 -0.019935753 -0.060868237 -0.0003707429
0.057015594 0.016705748 0.052727565 0.022260841 -0.03312433 -0.007856962 0.030928902 -0.032982044
0.0030250507 0.042475704 0.00629708 0.015204245 0.009091162 0.016721662 0.015868276 -0.0310829
0.05728469 0.02572288 0.020312626 0.047815517 -0.008739891 -0.035333645 -0.011668331 0.019558769
0.025226712 0.007939688 0.05221898 -0.04800515 0.014410003 -0.0244379 -0.046565738 -0.02354432
-0.053040765 -0.0060626273 -0.01890666 -0.017267596 0.03269764 0.03242867 -0.0482834 -0.00658989
0.03902694 -0.05661241 -0.04064266 -0.056303356 0.0362976 0.030205373 0.0075631524 0.04157639
-0.019140055 0.048491932 -0.015472548 -0.03254174 -0.038476896 0.02946849 -0.02851725 0.027304256
-0.022786142 -0.012681199 -0.054054685 0.0061642514 0.033989668 -0.05084353 0.02335609 0.0006472711
0.03924579 -0.035357162 0.0022312864 -0.020708656 -0.033701763 -0.012767894 0.048911434 -0.0063488586
0.032077502 0.009934243 0.016117908 -0.013408837 -0.022140084 0.040789418 0.017230181 0.005346766
-0.03767987 0.008855659 -0.0052514486 0.0356137 0.004614079 0.023941828 0.061331738 -0.029880662
-0.030252028 -0.03956284 -0.011987097 -0.0594421 -0.02660897 -0.01802268 0.023576783 -0.0027451925
0.042334106 0.04610489 0.008408453 -0.0063410443 0.04633492 0.026264787 0.010150267 0.05709657
-0.043630626 -0.0101888655 -0.037145786 -0.05626001 -0.025339413 -0.054246105 -0.035074487 -0.032055117
0.050569337 0.05392013 -0.03234915 0.013337902 -0.015974758 -0.024868172 0.058726482 0.05694023
-0.012011626 0.051051266 0.05884696 -0.011048236 0.024497127 -0.028785067 0.0033973593 0.026973039
0.030580401 0.035853315 -0.014821087 -0.025190767 0.011860598 -0.011524991 -0.03678347 0.029531876
-0.022149213 -0.007966893 0.03198678 -0.04555202 0.012987491 -0.057577234 -0.029134955 -0.017645549
-0.052057162 -0.020527827 -0.0005743663 0.055829145 -0.047171604 -0.0352636 0.043103855 -0.008574668
-0.025694514 -0.033992104 -0.0007380898 0.05381568 0.001100938 -0.01064734 0.053282782 -0.004006068
0.053602237 -0.05593995 -0.04569078 -0.0022877255 -0.052512575 -0.016680064 -0.033191133 0.040450297
-0.05592045 0.035637453 0.04584639 -0.030190194 -0.041693605 -0.058922183 -0.018178847 -0.011830716
-0.028260281 0.044174824 0.01949065 -0.045837447 -0.00027540355 -0.037786726 0.05978359 -0.030663105
00000000: 6f82 49bd 00b4 303d d3af 723d c270 363d
00000010: 47b3 10bc 60e8 b43c 2c70 683c 8dba 6f3d
00000020: 11d3 a0bc 8399 a3bc 908c 7dbc 7572 203d
00000030: b725 6ebd b3aa 77bc eb6a 503d 8c80 23bd
00000040: 39d8 23bc 986b 753d aafe a83c 4700 40bb
00000050: 30dd d23c 145a 383d 50fa 72bd f440 b53b
00000060: eab2 6c3d a34a c5bc 61e1 9b3c 87a1 d0bc
00000070: 10d2 22bc 87fd 9fbc 1c12 633b d82b 9f3c
00000080: fed7 adbc 97e1 31bd d0f5 20bb f9b8 f9bc
00000090: 542c 493d 966e d13c 83a3 5b3d 1d97 a4bc
000000a0: a3e8 8f3c 919a c53c 3efa 0bbd 0274 86bc
000000b0: 256b 5e3d 44b7 50bd 6357 1f3d a776 03bd
000000c0: 905c 623d decd 05bd 0e78 a63c aee3 5dbd
000000d0: cbf1 dd3c c568 dc39 9295 f6bc 9966 32bd
000000e0: eafe 713d c6bc a0bb 96dd 4abd 6103 4a3c
000000f0: bd51 68bb 88a7 d5bc 9daf 0b3c 5841 2ebd
00000100: 94b6 2abd 0479 563d 7f06 2d3d 946c 053d
00000110: 306f 1b3d 4e50 a3bc f950 79bd 4560 c2b9
00000120: 2f89 693d 7eda 883c dcf8 573d 5e5c b63c
00000130: 61ad 07bd 7dba 00bc 9c5e fd3c 2e18 07bd
00000140: ee3f 463b 01fb 2d3d bc57 ce3b 3a1b 793c
00000150: 19f3 143c defb 883c 30fe 813c 91a1 febc
00000160: 5aa3 6a3d cab8 d23c aa66 a63c 34da 433d
00000170: c331 0fbc 03ba 10bd 872c 3fbc b639 a03c
00000180: 40a8 ce3c 7715 023c 92e3 553d 0ca1 44bd
00000190: ef17 6c3c fe31 c8bc b7bb 3ebd 05e0 c0bc
000001a0: 4641 59bd 01a9 c6bb 24e2 9abc c674 8dbc
000001b0: f6ed 053d edd3 043d d0c4 45bd 01f0 d7bb
000001c0: b6da 1f3d 6ae2 67bd eb78 26bd 599e 66bd
000001d0: cbac 143d 4271 f73c 52d4 f73b 014c 2a3d
000001e0: 9bcb 9cbc 7a9f 463d 9280 7dbc 7d4a 05bd
000001f0: f399 1dbd e767 f13c 029d e9bc 2dad df3c
00000200: 01aa babc cec4 4fbc 7268 5dbd 7dfd c93b
00000210: c038 0b3d 4e41 50bd 4555 bf3c a1ad 293a
00000220: 32c0 203d acd2 10bd c63a 123b 33a5 a9bc
00000230: dc0a 0abd 6e30 51bc 5b57 483d 160a d0bb
00000240: b363 033d 3cc3 223c b409 843c bdb0 5bbc
00000250: 1f5f b5bc ce12 273d 4f26 8d3c ed33 af3b
00000260: 3556 1abd 5317 113c 5814 acbb acdf 113d
00000270: b331 973b a721 c43c fd36 7b3d 4ac8 f4bc
00000280: 1ad3 f7bc a50c 22bd 8765 44bc 8f79 73bd
00000290: 0efb d9bc 4da4 93bc 1924 c13c b0e8 33bb
000002a0: 8766 2d3d 7bd8 3c3d 9cc3 093c 89c8 cfbb
000002b0: afc9 3d3d 4029 d73c 4e4d 263c 18de 693d
000002c0: 07b6 32bd 33ef 26bc 2e26 18bd e570 66bd
000002d0: 9a94 cfbc 2a31 5ebd 44aa 0fbd 3a4c 03bd
000002e0: cb21 4f3d 5bdb 5c3d 8b80 04bd 3787 5a3c
000002f0: 7fdd 82bc 56b8 cbbc 2e8b 703d 293a 693d
00000300: 69cc 44bc 221b 513d 8309 713d a903 35bc
00000310: 33ae c83c a9ce ebbc 3ba6 5e3b 90f6 dc3c
00000320: c083 fa3c edda 123d 25d4 72bc de5c cebc
00000330: f452 423c 51d3 3cbc 44aa 16bd d5ec f13c
00000340: 4472 b5bc 9287 02bc 9204 033d c194 3abd
00000350: 7cc9 543c 1bd6 6bbd 6eac eebc 668d 90bc
00000360: e439 55bd f929 a8bc 1291 16ba 1aad 643d
00000370: 0337 41bd 9170 10bd ab8d 303d c47c 0cbc
00000380: 4d7d d2bc 4e3b 0bbd 5e7c 41ba d56d 5c3d
00000390: 594d 903a 2e72 2ebc 0c3f 5a3d 5645 83bb
000003a0: 058e 5b3d 4a21 65bd 4126 3bbd aaed 15bb
000003b0: 6d17 57bd a1a4 88bc 6df3 07bd 36af 253d
000003c0: d70c 65bd 94f8 113d 6dc9 3b3d 6d51 f7bc
000003d0: eac6 2abd 6358 71bd ceeb 94bc 9fd5 41bc
000003e0: 1b82 e7bc a9f0 343d dbaa 9f3c 0cc0 3bbd
000003f0: 0a64 90b9 41c6 1abd a3df 743d 3131 fbbc

combined_hidden_2.bias f4 [128]
0.03882996 -0.054632228 0.039031204 0.0568688 -0.015584169 -0.0057581365 -0.030460019 -0.034661572
-0.039311074 0.006525328 0.00021351017 0.032572508 -0.025094913 0.011392016 0.022298919 -0.05764798
0.051841885 0.027135182 0.017720336 -0.023329958 0.015857073 -0.036936846 -0.01805326 0.040932264
-0.058257304 0.04575958 -0.0016920199 0.044972975 0.041396517 -0.022898447 0.011287988 -0.007649281
0.049717605 -0.024903778 -0.0023393645 0.0114161335 -0.05728103 0.04622928 -0.025954077 0.020312957
0.02905309 -0.054381978 0.022231726 0.04530517 0.037702464 -0.011722234 -0.00062251376 -0.044240702
-0.05444329 -0.015290705 0.057686973 0.031896196 -0.049525734 -0.019221377 -0.05395068 0.014344368
0.004921591 -0.0015818761 0.055094965 -0.050842684 -0.030315239 0.030753078 0.03942946 0.047098257
0.048343636 0.007296004 -0.05480898 -0.02857655 -0.052520912 0.043093298 0.036364853 0.008582652
-0.0018631382 -0.0076603075 0.045500305 0.032199435 0.053068396 0.0602757 0.010567563 0.057444878
-0.05909569 0.0068847877 0.02695647 -0.0029073576 0.039043132 0.030149456 -0.021741077 0.019313945
0.012704884 -0.0033026447 -0.006893579 0.0014606841 -0.04267926 0.057954166 -0.024795435 0.043336734
0.0064038346 0.04807038 0.05989704 0.013791701 0.047221713 0.02793585 0.060383704 0.047646556
0.031787787 -0.025965419 -0.02268279 -0.04973466 -0.04130375 0.03922668 0.022205034 0.040591385
0.058381695 -0.027152661 -0.021109087 -0.056103002 0.0437341 0.005387379 0.001789219 -0.04166368
0.009032452 0.045724504 -0.060395155 0.009897349 0.039256062 -0.053789545 -0.011728093 -0.03129255
00000000: 2a0c 1f3d 0bc6 5fbd 2fdf 1f3d 42ef 683d
00000010: be54 7fbc c0ae bcbb 4a87 f9bc 4bf9 0dbd
00000020: a604 21bd 6bd2 d53b b3e1 5f39 c06a 053d
00000030: d993 cdbc 94a5 3a3c 39ac b63c 4a20 6cbd
00000040: 2858 543d 9a4a de3c 3d2a 913c 781e bfbc
00000050: b1e6 813c 174b 17bd 6ee4 93bc 97a8 273d
00000060: 369f 6ebd 666e 3b3d c4c6 ddba 9535 383d
00000070: 658f 293d 8695 bbbc 41f1 383c d2a6 fabb
00000080: b0a4 4b3d 0203 ccbc 0650 19bb bc0a 3b3c
00000090: 839f 6abd ea5a 3d3d a59d d4bc 5c67 a63c
000000a0: bf00 ee3c a3bf 5ebd 4f1f b63c ea91 393d
000000b0: e66d 1a3d 9d0e 40bc 3130 23ba bd35 35bd
000000c0: edff 5ebd dd85 7abc 2d49 6c3d 96a5 023d
000000d0: 7fdb 4abd 2676 9dbc 63fb 5cbd a404 6b3c
000000e0: 4c45 a13b f456 cfba 42ab 613d 6b40 50bd
000000f0: aa57 f8bc e1ed fb3c c980 213d 1aea 403d
00000100: fa03 463d 5113 ef3b 627f 60bd 5e19 eabc
00000110: 2b20 57bd 9982 303d 50f3 143d 409e 0c3c
00000120: 8b34 f4ba 5103 fbbb 875e 3a3d 8ee3 033d
00000130: 3f5e 593d a7e3 763d 9223 2d3c 524b 6b3d
00000140: 520e 72bd c999 e13b d1d3 dc3c 5e89 3ebb
00000150: b1eb 1f3d fefb f63c 581a b2bc 4738 9e3c
00000160: 2528 503c 2f71 58bb 88e3 e1bb 6d74 bf3a
00000170: 73d0 2ebd 5961 6d3d cc1f cbbc dc81 313d
00000180: 42d7 d13b 72e5 443d 9956 753d 96f6 613c
00000190: 8e6b 413d b9d9 e43c e754 773d 0929 433d
000001a0: e933 023d 6eb5 d4bc 42d1 b9bc 92b6 4bbd
000001b0: 1f2e 29bd 28ac 203d 55e7 b53c 2743 263d
000001c0: a521 6f3d 426f debc f7ec acbc 43cc 65bd
000001d0: 8722 333d 9c88 b03b 3a84 ea3a 89a7 2abd
000001e0: d9fc 133c 9e49 3b3d e960 77bd 7e28 223c
000001f0: f7ca 203d 6d52 5cbd 3027 40bc 9e2c 00bd

output.weight f4 [1, 128]
0.026585853 -0.017331922 0.0017077586 -0.03059681 -0.05642618 0.07462144 -0.052150737 -0.059610743
0.04280767 0.08530458 -0.028149795 0.057799585 -0.05790548 -0.078752324 -0.07761993 0.03878846
-0.07563407 -0.036427986 0.02799066 0.0051385225 0.037982024 -0.065480016 -0.072535366 0.028855544
0.009974094 0.0142321475 0.009603191 0.015712239 -0.021718955 0.07844776 0.060129758 -0.0735865
-0.010306737 -0.0011117496 0.06420909 -0.045682177 0.023423722 -0.065354355 -0.041241616 -0.0060058944
0.0050223763 0.007999356 0.08417453 -0.066882946 -0.082515165 -0.06264733 -0.084157154 -0.007297284
-0.0628793 -0.03781531 0.07995183 0.017329814 -0.047534436 0.044074655 -0.08133622 0.08040225
0.06750403 -0.03834985 -0.021499686 0.08534372 -0.059033964 0.045656595 0.07531486 -0.07831736
0.080042735 0.041400585 0.07307583 -0.063722916 -0.023978332 0.011482529 -0.08756505 0.07695664
0.059504278 -0.0006437931 -0.063449435 -0.077966176 -0.044543456 0.044654787 0.036693648 0.04857578
0.079244755 0.04765094 0.0759042 -0.051132135 0.04841341 0.008553418 0.009517749 -0.035185516
-0.0046027624 0.035329428 -0.028744098 -0.041990608 -0.015263333 -0.018926473 0.06611711 -0.075278156
-0.020278102 -0.02556884 -0.064121015 -0.018246287 -0.07806118 -0.06946315 -0.048880775 0.084558055
0.07520927 0.029333299 -0.074315436 0.0047824974 -0.036688313 0.030048354 -0.073042996 0.0550814
0.0665348 0.029747646 0.054150175 0.029392537 -0.0570466 -0.04586917 -0.0010277298 -0.08205519
-0.0032879703 -0.06421779 0.06027642 -0.002313451 0.025628593 0.08617358 -0.081873305 -0.004407517
00000000: 93ca d93c adfb 8dbc dfd6 df3a 29a6 fabc
00000010: 231f 67bd 20d3 983d 039c 55bd 652a 74bd
00000020: 1857 2f3d 2bb4 ae3d 669a e6bc 42bf 6c3d
00000030: 4c2e 6dbd e648 a1bd 33f7 9ebd a6e0 1e3d
00000040: 09e6 9abd 8335 15bd ab4c e53c 0d61 a83b
00000050: 0a93 1b3d 631a 86bd 6c8d 94bd 7662 ec3c
00000060: 626a 233c f42d 693c b456 1d3c f4b6 803c
00000070: f3eb b1bc 38a9 a03d 9f4a 763d 85b4 96bd
00000080: 97dd 28bc 20b8 91ba 0e80 833d 3c1d 3bbd
00000090: 1be3 bf3c 81d8 85bd f8ec 28bd 18cd c4bb
000000a0: bf92 a43b bb0f 033c b263 ac3d edf9 88bd
000000b0: b6fd a8bd 3e4d 80bd 965a acbd 0e1e efbb
000000c0: ddc6 80bd 3ae4 1abd c9bd a33d 41f7 8d3c
000000d0: 78b3 42bd a087 343d 9b93 a6bd efa9 a43d
000000e0: 8e3f 8a3d bb14 1dbd 1c20 b0bc b0c8 ae3d
000000f0: 99cd 71bd 6902 3b3d ad3e 9a3d da64 a0bd
00000100: 72ed a33d a993 293d c8a8 953d 2981 82bd
00000110: 356e c4bc 3821 3c3c 4e55 b3bd 719b 9d3d
00000120: c2ba 733d 39c4 28ba c7f1 81bd bbac 9fbd
00000130: 3373 36bd f0e7 363d 144c 163d 66f7 463d
00000140: 134b a23d a22d 433d a973 9b3d ee6f 51bd
00000150: 244d 463d a323 0c3c 55f0 1b3c b01e 10bd
00000160: c5d2 96bb 97b5 103d be78 ebbc 58fe 2bbd
00000170: 0f13 7abc b10b 9bbc 6868 873d 6f2b 9abd
00000180: 431e a6bc be75 d1bc e151 83bd 3d79 95bc
00000190: 8ade 9fbd b242 8ebd 3537 48bd c62c ad3d
000001a0: 5107 9a3d 634c f03c b132 98bd 7fb6 9c3b
000001b0: 7c46 16bd f727 f63c 9197 95bd 099d 613d
000001c0: 6643 883d 56b1 f33c 93cc 5d3d 9ec8 f03c
000001d0: b2a9 69bd 50e1 3bbd e4b4 86ba 8d0c a8bd
000001e0: fd7a 57bb 9e84 83bd 68e4 763d 449d 17bb
000001f0: 0ef3 d13c c67b b03d 31ad a7bd ef6c 90bb
